2-QNN_DeepQLearning/model_best_weights_6reps_longtrain.pth (torch, 1674 bytes, 3 tensors)

0.weights f4 [4]
0	0x3abf8bd9	0.0014613821
1	0xbb2ca5ce	-0.0026343944
2	0xbfad36f6	-1.3532398
3	0xbdfbedb1	-0.123011954

1._weights f4 [48]
0	0xbeed2859	-0.46319845
1	0x3e099ad6	0.13437971
2	0xbf9ed956	-1.2410076
3	0x3f1dcfbc	0.616451
4	0xbed8a8da	-0.42316324
5	0x3ddd117e	0.10794352
6	0xbf0faa20	-0.56118965
7	0xbe9017f9	-0.2814329
8	0xbe088c84	-0.13334852
9	0xbda2a737	-0.0794205
10	0x3ee67eaf	0.45018527
11	0x3eda4cbb	0.42636666
12	0x3f7b9b4a	0.9828383
13	0x3fe3bd6c	1.7792182
14	0x3e87cbfe	0.2652282
15	0x3e50ffbb	0.20410053
16	0xbf050670	-0.5196295
17	0xbe1bcce4	-0.15214878
18	0xbfae1e36	-1.360297
19	0xbf1a95aa	-0.6038462
20	0xbeac5f6a	-0.33666545
21	0xbeb0a4f9	-0.34500864
22	0x3f179f75	0.5922769
23	0x3ebabe48	0.36473298
24	0xbd4c6fe2	-0.049911387
25	0xbdbbd324	-0.09171131
26	0xbf5a7666	-0.8533691
27	0x3f210543	0.62898654
28	0xbf74540c	-0.95440745
29	0x3f8b9708	1.0905466
30	0x3f6ef7db	0.9334695
31	0xbf5cae45	-0.86203414
32	0x3db40185	0.08789352
33	0x3f1f2e89	0.6218038
34	0x3ed8ff7d	0.42382422
35	0xbe3cb513	-0.1842845
36	0x3f7ed5c9	0.9954496
37	0xbea8109d	-0.32825175
38	0xbecba57a	-0.39774686
39	0xbef8c475	-0.48587385
40	0x3f7583e6	0.95904386
41	0x3ea104ac	0.31448877
42	0xbebdca8f	-0.37068602
43	0xbf797fe1	-0.9746075
44	0xbec18dda	-0.37803537
45	0xbeb30325	-0.34963337
46	0x3eeb1dea	0.4592126
47	0x3e8cdbde	0.27511495

2.weights f4 [2]
0	0x42398f20	46.38977
1	0x42397efe	46.374016
